CNNs/digitrecognitionapp/checkpoint/model.pth (torch, 117703 bytes, 6 tensors)

conv1.0.weight f4 [16, 1, 5, 5]
00000000: 438f fb3e 2aac d63d 60cf ec3e e37e 613e
00000010: 299d ca3e f780 07be ffeb 703d eaf4 403e
00000020: adb9 613e 2830 89bf 5fc9 d4be fceb a13e
00000030: 6a74 123f a98e 20bf 36fd 54bf 3829 6abf
00000040: ed76 b4be 0eb8 02c0 d70d ebbf 4e67 bebb
00000050: 477f b9bf 3b43 60bf 2381 69be 91e0 773e
00000060: 80a8 d23e 65a2 8bbf 4f64 99bf 90eb c4bf
00000070: 0e1b d7be 4288 55bf 1f69 41be f4d0 623f
00000080: ee00 243f 87ca 5bbf bca0 61bf 6397 253f
00000090: 9187 073f cbbc fcbe 6db3 27bf 7975 81bf
000000a0: d1bc a6bd b0f1 333d 086f 57be ed8d 41bf
000000b0: adab 1fbf 3fc8 88bf d3be 8fbf dc31 0fbf
000000c0: a3b0 60be a406 57bd 9ad8 bbbd e8fc 34be
000000d0: 99ce 74be afb7 67bf 1c41 31bf f806 63bd
000000e0: 58ac bd3b 1a3b 74bc 9757 05bf 8945 77bf
000000f0: 2e42 48bf f04a 833e cded 073c e250 113e
00000100: 304c 19bf cc02 c6be 7d7c 873e 8afa 353e
00000110: b6d7 5a3b 1bfa fbbe 2b9b 11bf 20a2 6c3e
00000120: ebe9 c83e 6987 b73e d9bd d4bf 3b18 3cbf
00000130: a3e9 41bf 5fc4 bbbe 5001 6b3e 734f 5e3d
00000140: d83d aebe f8a6 8fbd bcec 4c3f 2300 4a3e
00000150: 8178 ac3e d914 313f de50 dd3e 910f ae3e
00000160: 47f4 e0be 98b7 b5be a424 d23d c8d5 2ebf
00000170: 9e9d 48bf fb49 45bf 3d05 963d c43a 3a3d
00000180: e697 0abd d8de 433e de87 0a3f 9dfc 3d3f
00000190: 1227 6f3b 71fd abbd a647 4cbf dd79 a1bf
000001a0: 9119 95bf 8ec9 42be ca34 bfbe 9a1c f7bc
000001b0: d5fe 22be 77e9 4bbf 9522 8e3e a02f 393f
000001c0: 4939 133f 65b4 bc3d 7d0b 23bf 586d 1e3e
000001d0: 28cd a53e 9e6b 8c3c 0ad0 b03c 7377 3abf
000001e0: 0cba 02c0 b59c 88bf c73f 55bf f19c fc3d
000001f0: e4f1 94be 8922 883d 8696 823e b720 013e
00000200: 9e39 a1bc fdf6 853e 1600 f53e f81f 7ebc
00000210: 82bd 40bd 0209 84be c24e db3e 634f 37bd
00000220: 2c9b 933c e0fc 82be 4567 82bc b4a6 1b3e
00000230: f899 a5be 70ac 163e 4633 f53e f4c4 25be
00000240: 0b9d 323c dcb6 65bf 516c e1bf b9ce c4bf
00000250: 4ed4 9abf 0cc7 2dbf c860 f4be 6d16 cdbe
00000260: 9b25 1abd 0879 953d ddd8 12bf c432 35bf
00000270: ecee 96ba 4957 423e f48f 4e3e 1aea 1ebe
00000280: bb3c 44be 2896 34bf 93d6 743e f43f dd3e
00000290: db85 233f 013c 173e aac8 c5be 2924 10bf
000002a0: 7d26 04be f86c 293e 3113 b0be c2de 2cbf
000002b0: ce8d 5fbf e16e 56bf 4db1 2abf 5f6a 19bf
000002c0: eb6b 7f3e fbcc b43e 3811 fdbc 3928 32be
000002d0: dc4f cc3c 37a0 0f3f 8bcf 733d a1bb 783d
000002e0: fdcb 6fbf 08c0 a93e 6cf9 d03e 89ea cabd
000002f0: 5384 d8be 7d44 14bf 39e2 4d3e fb97 c73e
00000300: a4ff 2e3d ba83 a6bf 567e 0abf 0ad0 e5bd
00000310: b8ea 38bf e28c 74bf d517 40bf dcdc 383f
00000320: 0302 59bc 4e4b 9cbe 9547 3abf 6991 eebe
00000330: 9c6b 26bf a3b5 ff3c 2023 3ebf 623f 9a3d
00000340: 2b10 143d 06b0 4a3d a145 ddbd 0a96 81bf
00000350: 61c3 49bf 5df2 bbbe c6ef c8bc 8383 67bf
00000360: 774d 83bf dc38 30bf bd15 5bbe c328 f83e
00000370: 11bd cfbe f4f5 7bbd e30a d8bc ac9e 613e
00000380: 702b b63e 1168 d83e e5fa 623e 3a54 193e
00000390: 0a64 583d 49a2 bcbe 99ba 0a3f 2666 f93e
000003a0: c4b8 1f3e 924c f6be b7a4 05be d53a c1be
000003b0: ed4c bf3e a6df 423d 248a cebe a0f1 653e
000003c0: 7c76 c6be 90a6 bf3d 1a69 fc3d 8047 94be
000003d0: 8ccd cd3e 84b6 88bf 8630 e73e 8105 3a3e
000003e0: 97bd 803e 81f8 1c3f 9ff6 59bd 2df1 52bd
000003f0: 9f10 bb3e 571b 4c3d 1ebd 133f 52f1 4d3d
0.49132738 0.104820564 0.46251965 0.2202106 0.3957303 -0.1323279 0.058818813 0.18843427
0.22043486 -1.0717821 -0.41559884 0.31625354 0.57208884 -0.6271768 -0.8319887 -0.91469145
-0.35246983 -2.0424838 -1.8363599 -0.0058106547 -1.4491967 -0.87602586 -0.22803168 0.24206759
0.4114418 -1.0908934 -1.1983737 -1.5384388 -0.4201283 -0.8341104 -0.18887757 0.8860009
0.6406392 -0.8585591 -0.88135886 0.6468412 0.5294123 -0.49362788 -0.65508157 -1.0113975
-0.081414826 0.043931663 -0.21038449 -0.75607187 -0.6237133 -1.068611 -1.123011 -0.55935454
-0.21942382 -0.052496567 -0.09172173 -0.17674601 -0.23906936 -0.90514654 -0.69239974 -0.055426568
0.0057883672 -0.014906669 -0.52086776 -0.9659048 -0.7822598 0.2564311 0.008296442 0.1419101
-0.5988188 -0.3867401 0.26462165 0.17771354 0.0033392734 -0.49214253 -0.5687739 0.23108721
0.39240965 0.35845497 -1.6620437 -0.7347447 -0.75747126 -0.36673257 0.2294972 0.054274987
-0.34031558 -0.07014269 0.8004873 0.19726615 0.33685687 0.69172436 0.4322576 0.3399625
-0.4393637 -0.35491633 0.10260895 -0.68294954 -0.78365505 -0.7706601 0.07325218 0.0454662
-0.033836268 0.19127977 0.54113567 0.7421358 0.0036491794 -0.083979495 -0.79796827 -1.2615315
-1.1648427 -0.190222 -0.37344962 -0.030165005 -0.15917523 -0.79653114 0.2776076 0.72338295
0.57509285 0.09214095 -0.63689405 0.15471399 0.32383084 0.01714116 0.021583576 -0.72838515
-2.0426054 -1.0672823 -0.8330044 0.12334622 -0.29090798 0.06647212 0.25505465 0.12610136
-0.019680794 0.26165 0.47851628 -0.015510552 -0.04705573 -0.25788122 0.42833525 -0.044753443
0.018018328 -0.25583553 -0.015918383 0.15200311 -0.3234403 0.14714217 0.4789068 -0.16188413
0.0109017 -0.89732146 -1.761118 -1.5375587 -1.209604 -0.67881846 -0.47730088 -0.40056172
-0.03763352 0.072984755 -0.5736216 -0.7078059 -0.0011515296 0.18978609 0.20172101 -0.1551899
-0.19163792 -0.7054162 0.23909979 0.43212855 0.6387612 0.14768983 -0.38629657 -0.56305176
-0.12905307 0.16545475 -0.34389642 -0.675274 -0.8732575 -0.8376294 -0.6667679 -0.59927934
0.24943511 0.35312638 -0.030892 -0.17398156 0.024940424 0.56103843 0.0595241 0.060725812
-0.93670636 0.3315432 0.40815294 -0.09908015 -0.42288455 -0.57917005 0.20105828 0.3898314
0.042724267 -1.300895 -0.54099023 -0.11221321 -0.7223315 -0.9552747 -0.75036365 0.72212005
-0.013245109 -0.30526203 -0.72765476 -0.46595314 -0.6500795 0.03121454 -0.74272346 0.075316206
0.03614823 0.049484275 -0.10804296 -1.0123913 -0.7881375 -0.36708346 -0.024528395 -0.90435046
-1.0258015 -0.6883676 -0.21395011 0.484686 -0.40573934 -0.061513856 -0.026372379 0.22033185
0.35580015 0.42266896 0.22166021 0.14973536 0.05282978 -0.36842564 0.54190975 0.48710746
0.15597826 -0.48105294 -0.13051115 -0.37740198 0.37363377 0.04757657 -0.40339768 0.22455454
-0.3876227 0.09357941 0.12324734 -0.289608 0.40195882 -1.0680699 0.45154208 0.18166162
0.25144646 0.61316687 -0.05321371 -0.051499534 0.36536118 0.04983076 0.57710445 0.05027897

conv1.0.bias f4 [16]
00000000: 2655 babe f9d0 91be d09a bbbe 1d8d 84bf
00000010: 6b20 97be 9ac0 ecbd 6d82 27bd c53f 18bf
00000020: c795 25be 8050 a1bf e0c1 89bf cf63 4cbe
00000030: c76b 6cbf cc19 37bf 32ca 26be 4be3 4fbf
-0.36393088 -0.28479746 -0.3664155 -1.0355564 -0.2951692 -0.11560173 -0.040895868 -0.59472305
-0.16170417 -1.2602692 -1.0762291 -0.19959949 -0.92351955 -0.7152374 -0.16288069 -0.81206197

conv2.0.weight f4 [32, 16, 5, 5]
00000000: 2339 dabe 6f8d e7be f26f bc3e 398d bfbd
00000010: d56a e83e 8db1 613e d673 713e d660 803e
00000020: 1059 41be 77a4 013e bd34 a43d b986 7a3e
00000030: 55d4 513e 1632 1e3e 7173 3e3f b17f bebe
00000040: 37c2 453e e59f 7bbf 645d 353f ef5e a13e
00000050: fb6f 95bf fd93 533e 8ae1 9bbd dc3a 5d3f
00000060: f070 57bf b242 8e3f c2e8 d2be f130 673f
00000070: 1d70 1dbf 5946 8abe 40c3 243f 46c1 28be
00000080: ddea 363f 70a1 27bf 902e 46bf b818 65be
00000090: d2aa 383e d8ae 30be 9601 53bf 1eb4 393e
000000a0: 9fe9 893e 70a7 a7be 7a2e aabf e813 26bf
000000b0: 94ef 46bf 392e babf 606f fcbe 6557 8dbe
000000c0: 8c5f 86bf 8733 b6bf 392f 24bd 3c9f f0bd
000000d0: 759c b63e aba9 72be 64ee 243b 571c 7a3b
000000e0: 96b5 593e d8b4 743e b077 d9bd 2f46 37bf
000000f0: df26 f0be 96ba 08bb fa95 28bf 7f36 67bf
00000100: 07a8 1fbf 8db0 09be 6dbc 83be de7a 12bf
00000110: e039 9bbf 1d7f 14bf 7ab2 f33e dc4e 093f
00000120: 2d11 d7bc f9ee 56bf 9ce8 a3bf 9540 71be
00000130: dee3 773e 5f6f b43c 7f8f a4bc 3465 b43e
00000140: d1d2 203d 2cdf 97bd 823c d6bd 3962 183e
00000150: c6b7 c93e 4546 eebe f409 e2be bcbf 44bf
00000160: 4eb2 28bd d902 4fbe 8586 eebd f859 87bf
00000170: 8842 413c 4031 ea3d 3de8 893e 943c 433f
00000180: df25 09bf a083 dabe 50fb 953e cde2 243e
00000190: 3178 023f 49e5 583e 0f3a c93e ea1b 90be
000001a0: 3adc 233e ee4f 883e 964b 0f3f ec2d 2abf
000001b0: f6af 05bf 70a7 bd3e 9740 943f 04d4 873e
000001c0: f936 dbbb 95f1 66be 4884 5d3e 75af a43e
000001d0: 9ee0 98be d118 833f fc12 83bf 5b22 9abf
000001e0: 39e2 a03e df33 cd3d 4017 113e 87fa 99bd
000001f0: db2d ec3d 3709 b73e e2a3 9f3e 7a7f 19be
00000200: afcf 8abe 8773 913d 084d 093f bdbb 373e
00000210: 4e5c d63d 4701 ecba 0553 783e 274d 24bf
00000220: acd2 cf3e 752a 9e3e 97ce 183f 48ab ba3e
00000230: b58e afbf d06a 67bf 0de0 1bbf 2db8 563e
00000240: 738b bcbe 21a3 d13d 983f 5dbf 4865 94be
00000250: ae6f abbf 7e9e f2be d79a 883d 611f 493e
00000260: 0342 103f c67e 9a3e 153d 113e 0e9b 0abf
00000270: 88d6 dd3c 2290 233e f01c 4ebe 05bb d53e
00000280: a231 ef3e 3ce9 b13e 676e 043f 6dae 443d
00000290: c9cc 1ebf 10fe 69be 74ee 98bf 1f90 f13e
000002a0: 0e50 2d3f dadd e7be 7353 83be 7276 333d
000002b0: 7eb1 353c c27d 153d b314 353f 2984 c1be
000002c0: d618 4ebe 0fee 913e 94b3 72be a59f 1b3f
000002d0: c2e6 483e ceee 453e ea0d babd c75e 9bbe
000002e0: 3480 c2be 06fd efbd cc3d 72be d054 dabe
000002f0: 82b7 b4be 569b b3be 3787 3dbf df2c aebf
00000300: 8c92 9cbf 4375 0cbf f643 4e3e beaf 13bf
00000310: ec99 4dbf 4a23 ebbf 4414 86bf 7245 97bf
00000320: 9d6c 94be 3c82 aabd 5640 c33e 9f3c 133e
00000330: 4455 203f 98f0 53bf e1b8 c43b a0a6 8e3d
00000340: 7fcc c6bd 93f6 cf3e d466 24bf 1aee 30bf
00000350: a676 86bd 7e4e 4d3e d413 bcbf 0f12 153e
00000360: 8840 34bf fe2a a0bf e2b2 a6be 587f 01bf
00000370: c783 9abd e30e 983e 84fe 9a3e fef4 dc3e
00000380: 168b 063f e20b c7be 9c4f 08bd 1827 a53e
00000390: c851 7abd 08eb 08be 30ee 22be a3a0 02be
000003a0: 572d 01be cdaa eabd d313 1cbd 59a1 f3be
000003b0: 8fcf 80bc 0143 e73d 7bf8 8cbe 2172 16bf
000003c0: b1fb 9bbf fb6b 97bf b5c2 91bf 3f28 b5be
000003d0: 4ca5 033f 3c5e 953e 64f5 473b dca3 febe
000003e0: d86c 113d bbd1 79be 90b2 343d 232a 27be
000003f0: 7a5f 86be 2809 db3d 505d 2fbe ba5f 28bf
-0.42621717 -0.45225093 0.36804157 -0.09353108 0.45394006 0.22040386 0.23579344 0.2507388
-0.18881631 0.12660395 0.080178715 0.24465455 0.20491154 0.15448794 0.743949 -0.37206796
0.19312368 -0.98290855 0.7084563 0.3151774 -1.1674799 0.20661922 -0.076113775 0.8641794
-0.84156704 1.1114104 -0.41193205 0.90309054 -0.61499196 -0.27006796 0.6436043 -0.16479978
0.7145212 -0.6548071 -0.774148 -0.2237271 0.18033913 -0.17254198 -0.82424295 0.18135116
0.2693605 -0.32744932 -1.3295434 -0.64874125 -0.7770932 -1.4545356 -0.49303722 -0.2760574
-1.0497909 -1.4234475 -0.040084098 -0.117491215 0.35666242 -0.23697536 0.0025166506 0.0038163865
0.21260676 0.23897111 -0.10618532 -0.71591467 -0.46904656 -0.0020863167 -0.65853846 -0.9031753
-0.62365764 -0.13446255 -0.25729695 -0.5721873 -1.2127037 -0.5800646 0.47597104 0.53635955
-0.026253307 -0.83958393 -1.2805362 -0.23559792 0.24208018 0.022025762 -0.020087956 0.35233462
0.03926355 -0.074156135 -0.1046076 0.14881219 0.3939802 -0.46537986 -0.4414822 -0.76855063
-0.04118567 -0.2021593 -0.11646751 -1.0574331 0.011795647 0.11435175 0.26934996 0.7626431
-0.5357341 -0.42678547 0.292933 0.16102143 0.5096465 0.21181215 0.39302108 -0.28146297
0.16001979 0.26623482 0.5597471 -0.6647632 -0.5222162 0.37041807 1.1582211 0.26528943
-0.006689903 -0.22553094 0.21632493 0.32165113 -0.2985887 1.0241948 -1.0240169 -1.2041734
0.31422594 0.10019659 0.14169025 -0.075184874 0.11532184 0.35749218 0.3117972 -0.14990035
-0.27111575 0.07102113 0.53633165 0.1794271 0.104668245 -0.0018005752 0.2425042 -0.64180225
0.40590417 0.30891767 0.5969023 0.36458802 -1.3715426 -0.9039736 -0.6088875 0.20968695
-0.3682514 0.102361925 -0.8642516 -0.2898352 -1.3393457 -0.47386545 0.06670158 0.19640876
0.56350726 0.30174845 0.14183457 -0.54142845 0.027079836 0.15972951 -0.20128226 0.41744247
0.46717554 0.34748256 0.5173096 0.048017908 -0.6203123 -0.22850823 -1.194777 0.47180268
0.6770028 -0.45286447 -0.25649604 0.04381413 0.011089681 0.036496885 0.7073471 -0.37796143
-0.20126662 0.28501937 -0.23701316 0.60790473 0.19619277 0.19329378 -0.09084685 -0.30345747
-0.37988436 -0.11718182 -0.23656386 -0.42642832 -0.35296255 -0.3507945 -0.74034446 -1.3607444
-1.2232223 -0.5486643 0.20143113 -0.57690036 -0.8031299 -1.8370144 -1.0474935 -1.1818068
-0.28989115 -0.083256215 0.38135022 0.14378594 0.62630105 -0.8278899 0.0060034846 0.06965375
-0.09706973 0.4061781 -0.64219403 -0.69113314 -0.06565599 0.20049474 -1.4693551 0.1455767
-0.70410967 -1.251312 -0.32558352 -0.50584936 -0.07544666 0.29698858 0.30272305 0.43155664
0.5255598 -0.38876253 -0.033279046 0.3225639 -0.06111315 -0.13370907 -0.15911174 -0.1275659
-0.12614952 -0.11458359 -0.038104843 -0.47584036 -0.015723972 0.11292077 -0.27533326 -0.58767897
-1.2186185 -1.1829828 -1.1387545 -0.35382268 0.514241 0.29173458 0.0030511254 -0.4973439
0.035504192 -0.24396412 0.044115603 -0.16324668 -0.26244718 0.10695106 -0.1712544 -0.6577107

conv2.0.bias f4 [32]
00000000: 8953 d3be 7b0c c6bc 26a0 43bf bbfd 97bd
00000010: c2b4 f1bc 1509 75bf 1f6a 2fbd 92ad 88bf
00000020: a7b0 24bd 65cb a3bd d4a1 16bf 732a a6bd
00000030: b672 c4bc 98df a1bd a16d 1cbd a050 40bd
00000040: 2c84 f6bd 42ed 6ebd e273 8abd fe13 1abf
00000050: 0b72 2dbd 614a 8bbd 239f 38bd 6d4c 8cbd
00000060: 218f 46bd 46db e8bc 21b1 b6bc 1f52 3dbd
00000070: d244 babc 491e b9bd 7a6b 3abd e781 4bbd
-0.4127467 -0.024175873 -0.7641624 -0.07421442 -0.029505137 -0.95716983 -0.042825814 -1.067797
-0.04020753 -0.07997779 -0.5884068 -0.08113565 -0.02398048 -0.07903975 -0.038190488 -0.04695189
-0.120369285 -0.058331735 -0.06760384 -0.60186756 -0.042345088 -0.06801296 -0.04507364 -0.068505146
-0.048476342 -0.02842487 -0.022301259 -0.046220895 -0.022737894 -0.090389796 -0.045512654 -0.04968443

out.weight f4 [10, 1568]
00000000: bd37 bf3e 7545 2bbf 5a7c 333f 0190 65bd
00000010: cb4b 273d 36c3 aa3c 31c8 8f3f 4698 133f
00000020: 7c7d 86be 7918 a9be 5676 41be 3014 0d3f
00000030: dadf 4e3f 4483 433f 6b51 8cbe 5947 90bf
00000040: bf8f acbf 3527 543e ea1f 45be b5d7 31bf
00000050: 510e c23d 9f48 fdbf 9483 c2bf 3b40 16bf
00000060: 83f5 1d3f fe36 d03e 370a 34c0 7f81 e9bf
00000070: 825e 42bf ce61 0cbf 734a 18bf c5ed 223d
00000080: b8e7 ec3c 9493 c1bf 15d0 a23c 651a 52bd
00000090: 76ca 103e 6774 ae3e 9c34 d03e 8ee1 a93e
000000a0: 1eda f1bc 4c6f 6dbf c533 373f fce9 c13b
000000b0: 4ede ec3e acb0 ca3e 494a b4be d6d2 dcbd
000000c0: 8bbd 96be 98c5 a63c db65 4b3d 1132 153d
000000d0: 5f8b e33c b5a5 943d 15bd 923d 0c29 273d
000000e0: 8612 623d d4da 9b3d cbed d73c c4dd 9f3c
000000f0: faaa 553d cc52 573d 2f90 613d 85f2 803d
00000100: 84b6 963d 50d6 7e3c 9353 c13c 4782 7a3d
00000110: 27b8 893d 6c91 903d 65f7 2a3d 809c e73c
00000120: a6a3 533d 097a 403c 0ad3 3d3d 2f5b 393d
00000130: 263c ba3d d118 463d 8249 1a3d eae9 283d
00000140: 6422 af3c 4a4e e23c c919 883d 3c66 243d
00000150: 6baf 3e3d fcec 633d 7ed0 103d 9013 8e3d
00000160: 998e 183d 2743 253d 9ae2 023d 9fc3 513d
00000170: 501e 273d fa77 773d 70fb 263d 80d0 6c3d
00000180: 76a9 f73c 952a 473d 476e 77bd f09c b33b
00000190: bf20 b63c bcf9 09be 1b6c f83a 6978 3dbe
000001a0: ec5d e8be 2e55 8bbc e380 cebd 4e98 1cbe
000001b0: 2d79 cd3e adb7 d8bb 3589 963e dbe6 a73e
000001c0: 6767 2a3e 1b40 813e cd80 5dbe 4d58 023f
000001d0: b2c1 ac3a 775e a33e aacc 2abc 0cd8 b4be
000001e0: c178 143e e920 5a3d e659 abbe beed cc3d
000001f0: 56f5 8e3e 34d8 11be 4e7d 6a3e 46a5 473e
00000200: c8b1 ad3e 3c40 343e 1580 103e 22ef bfbe
00000210: ed1b 89be 0615 9e3e 9a5d 4f3e 34fe 863e
00000220: 8bfa 4abe 15a2 49be dfb1 b1be d82a a9be
00000230: f7f0 a53c 519d 253e 6e65 753e 049a 82bc
00000240: fd2c 14bd 9cef cabe 9b42 aabd c2e2 0c3d
00000250: 5b81 fd3c 11a4 793d 8dba 863d d83c 493d
00000260: 480c 773d a7bc 853c dec7 7c3d 265b 463d
00000270: 9a4e 843d 4b1a 0e3d 7b17 d03c 42f7 853d
00000280: d51e 663d d13e 073d 99dd 503d 5c3e 453d
00000290: a049 033d b4f0 d83c 7980 533d f941 713d
000002a0: 815d 943c 8ae5 ab3c b0ae ba3d adc1 b13d
000002b0: c6b3 f6bb d006 983c a13d 853d 162c 4bbc
000002c0: 6c97 383d 029b b73d 7116 8f3c 31db 843c
000002d0: b93f 3a3d 0ac2 e63c 102f 243a 1c8d 1bbd
000002e0: c2e1 a03d 570d 473d a3cd 9f3c f173 013d
000002f0: bb32 103d 5526 ac3c 55fc a73c 8786 763d
00000300: 89fe 0e3d e149 afba 26f6 ad3c 2066 3bbc
00000310: dcc9 ed3c 1315 223d 8c3c 513d 564e 743d
00000320: d5c9 8e3d b4e4 6e3d cdb4 433d efe3 303d
00000330: 964d 663d 7e89 863c 1c54 3c3d 10cd 1d3d
00000340: 475e ee3c b6a8 b73c 0fb2 3e3d 27eb 733c
00000350: dc88 af39 f4ba 053d 6daa 1e3d c8da 0d3d
00000360: 2d0f 463d d276 773d 1c51 cf3c 0120 fb3c
00000370: 91b0 1e3d f21a 7c3d e734 383c c897 193d
00000380: 7a3c cf3c 7f3b 063d 41a9 c73c 7ae3 883d
00000390: e46c 7c3d fff6 9c3b 6714 5dbc 6e89 983c
000003a0: bcda 2d3c 0052 44bc 2ef3 873c 3e86 ff3c
000003b0: 5732 023c 3441 a83c 94c3 003d 055d f73c
000003c0: c8c8 6ebc 9cb1 51bc 329b 7dbc 5bbf 133d
000003d0: 01b3 613d 18ae 19bd 22e5 eabe 7415 25bf
000003e0: 218c 923d f106 86be 071c 12be 1e99 2c3e
000003f0: f8ed debd 4cf2 093e fac2 993e 910d cebc
0.37347212 -0.6690286 0.7011162 -0.056045536 0.040843766 0.020845037 1.1232969 0.57654226
-0.26267612 -0.33026484 -0.18892798 0.5510893 0.8081032 0.7637217 -0.27405867 -1.1271774
-1.3481368 0.20718081 -0.19250455 -0.6946977 0.09475387 -1.9787787 -1.5196404 -0.5869176
0.61702746 0.40666956 -2.8131235 -1.8242644 -0.7592546 -0.5483674 -0.594886 0.039777536
0.028919086 -1.5123162 0.019874612 -0.051294703 0.14139733 0.34073183 0.40665138 0.33179897
-0.029522952 -0.9274795 0.7156337 0.0059177857 0.46263355 0.39587915 -0.35212925 -0.10782401
-0.29441485 0.020357892 0.049657684 0.0364247 0.027776418 0.072581686 0.07164971 0.04081063
0.055193447 0.076100975 0.026358506 0.019514926 0.05216501 0.052569196 0.055069145 0.06296257
0.07359031 0.015554026 0.023599422 0.0611594 0.067245774 0.07058987 0.04173984 0.028272867
0.05166974 0.011747845 0.04634384 0.045252975 0.09093504 0.04836351 0.03766776 0.041238703
0.021378703 0.027625222 0.06645543 0.04013656 0.04655401 0.055645928 0.035355084 0.06937325
0.037245367 0.040347245 0.031954385 0.05121195 0.040800393 0.060417153 0.040767133 0.05781603
0.030232172 0.048624594 -0.060407903 0.005481355 0.022232411 -0.13474172 0.0018953116 -0.18502964
-0.45384157 -0.01700839 -0.10083177 -0.15292475 0.40131512 -0.0066136927 0.29401556 0.32793316
0.16641007 0.2524422 -0.21631165 0.50915986 0.0013180284 0.31908008 -0.010424772 -0.3532108
0.14499189 0.05325404 -0.33467025 0.10006283 0.2792155 -0.14242631 0.22899362 0.1949664
0.339247 0.17602628 0.1411136 -0.3748713 -0.26779118 0.30875415 0.2025055 0.26365817
-0.19822137 -0.19690736 -0.34706017 -0.330405 0.020256503 0.16173293 0.23964474 -0.015942581
-0.036175717 -0.39635932 -0.08313485 0.03439594 0.03094547 0.06094748 0.065785505 0.04913029
0.060314447 0.016325308 0.061714046 0.04842677 0.064603046 0.034693044 0.025401821 0.06541301
0.056181747 0.03301889 0.050992582 0.048155174 0.032052636 0.026481964 0.051636193 0.058900807
0.018110992 0.020983476 0.0911535 0.08679519 -0.007528755 0.018557936 0.065058954 -0.012400648
0.045066282 0.08965112 0.017466756 0.0162178 0.045470927 0.028168697 0.00062631164 -0.03797637
0.0785556 0.048596706 0.019507235 0.03160471 0.03520463 0.021014372 0.020506063 0.06018689
0.034910712 -0.0013373458 0.021235537 -0.011437923 0.029026918 0.03957088 0.051083133 0.05964502
0.0697209 0.058323577 0.047779847 0.043186124 0.056226335 0.016422983 0.04597865 0.03852564
0.02909769 0.022419315 0.04655653 0.014887608 0.0003348057 0.032648996 0.03873675 0.034632474
0.048354317 0.06041605 0.02530723 0.03065491 0.038742606 0.061549135 0.011243082 0.037498266
0.025297392 0.032771584 0.024372699 0.06684013 0.061627284 0.0047901864 -0.013493634 0.01862022
0.010611232 -0.011982441 0.01659545 0.031191941 0.007946572 0.020538904 0.031436518 0.030195722
-0.014574237 -0.012798693 -0.015478896 0.036071163 0.055102352 -0.037519544 -0.4587794 -0.6448586
0.07155634 -0.2617717 -0.14268504 0.16855285 -0.10885233 0.13471335 0.30031568 -0.025152953

out.bias f4 [10]
00000000: 926e e13e bd97 733f 800b 4abe c837 103f
00000010: e81e f8b9 d3aa e6be ed9a 04bf 490d 063d
00000020: e6a4 9a3d 978c 0ebf
0.4402967 0.9515341 -0.1973095 0.56335115 -0.00047325273 -0.45052204 -0.517989 0.032727513
0.07550983 -0.55683273
